models/gcn_3layer_MUTAG.pt (torch, 6927 bytes, 8 tensors)

gc1.weight f4 [7, 20]
0	0xbe171219	-0.14752997
1	0xbd2d7afa	-0.042353608
2	0x3e77d47d	0.24202152
3	0x3ee916cf	0.45525214
4	0x3a3f80fb	0.00073052914
5	0x3e6f9a75	0.23398764
6	0xbcf1f2b1	-0.02953467
7	0xbd948200	-0.07251358
8	0x3e039cb3	0.12852745
9	0x3d85dec6	0.06536631
10	0x3e46e830	0.1942451
11	0xbdf445c6	-0.11927371
12	0x3d3db74b	0.04631738
13	0x3ebac712	0.36480004
14	0xb9aa4f72	-0.00032484118
15	0xbda48144	-0.08032468
16	0x3ece6ab9	0.40315798
17	0x3ec90040	0.39258003
18	0x3e4d7342	0.20063499
19	0xbd9c59c5	-0.0763431
20	0x3d1fd2d6	0.03901943
21	0x3e8662f2	0.26247364
22	0x3cd20f1e	0.025641974
23	0x3b582d3f	0.0032985953
24	0x3eb0f42a	0.34561282
25	0x3e901f5c	0.28148925
26	0xbebaf2f1	-0.36513475
27	0x3e983ea4	0.2973529
28	0xbf197f4e	-0.59959877
29	0x3b096b3b	0.0020968455
30	0x39b5e7cf	0.0003469572
31	0x3cf11e53	0.029433405
32	0xbebf3f46	-0.3735296
33	0x3b6c4e00	0.0036057234
34	0xb2502ca1	-1.2117341e-08
35	0x3f37bc32	0.7177154
36	0x3b8e8c3a	0.0043502124
37	0xbdab6ae0	-0.08369994
38	0x3f071cac	0.52778125
39	0x3eb9c4f9	0.3628309
40	0x3dfe1f95	0.124083675
41	0x3efafc75	0.49020734
42	0x3ea5cfd0	0.3238511
43	0x3d0ef57a	0.034902073
44	0x3f0c516a	0.5481173
45	0x3b5450fb	0.00323969
46	0x3e250988	0.16116917
47	0xbc9835df	-0.018580375
48	0xbe4c21d7	-0.19934784
49	0x3eafc427	0.3432934
50	0x3edbe746	0.42949885
51	0xbd1ade5d	-0.03780972
52	0xbdb65ff1	-0.08905018
53	0x3e365969	0.17807545
54	0x8032e668	-4.674429e-39
55	0x3e250c59	0.16117992
56	0xbd943c87	-0.07238107
57	0x3e2cdd51	0.168813
58	0xbe391b1e	-0.1807675
59	0x3cf58fcc	0.029975794
60	0xbbc3206b	-0.0059547923
61	0x3935f7c6	0.00017353808
62	0xbba1c8b2	-0.004937255
63	0xbd50d6cc	-0.050986096
64	0x3c11a82a	0.008890191
65	0xbd506e33	-0.050886344
66	0xbd1578da	-0.036492206
67	0x8000e688	-8.2699e-41
68	0xbbed8556	-0.007248561
69	0x3c86fe89	0.016478794
70	0x3bdc5d78	0.0067250095
71	0xbd321588	-0.043477565
72	0xbcad8683	-0.021182304
73	0xbaddf7cf	-0.0016934815
74	0x8000f852	-8.908e-41
75	0xbcd8b501	-0.026453497
76	0xbc768641	-0.015046657
77	0xbd1bec61	-0.038067225
78	0xbd3c39cc	-0.045953557
79	0xbd0f4db9	-0.03498623
80	0x000045b5	2.5006e-41
81	0x00011c68	1.02026e-40
82	0x000b4e27	1.038226e-39
83	0x0000bab4	6.6976e-41
84	0x000c26f5	1.116001e-39
85	0x0001c3a0	1.62013e-40
86	0x800c1d55	-1.112548e-39
87	0x00009d5d	5.6451e-41
88	0x0000025e	8.49e-43
89	0x8000e3ae	-8.1676e-41
90	0x8002c15b	-2.53034e-40
91	0x000917ab	8.3501e-40
92	0x8001252e	-1.05173e-40
93	0x800006c1	-2.423e-42
94	0x000058a5	3.18e-41
95	0x80004467	-2.4538e-41
96	0x80010c10	-9.6163e-41
97	0x00013b7e	1.13177e-40
98	0x8001049f	-9.3493e-41
99	0x0025f53a	3.485884e-39
100	0x3d04d301	0.03242779
101	0x3e0d420f	0.1379473
102	0x3ac27172	0.0014834835
103	0x3e1d4682	0.15358928
104	0x3e059595	0.13045342
105	0x3b0f5520	0.0021870807
106	0x3e3895da	0.18025914
107	0x00010256	9.2673e-41
108	0x3d63d233	0.055620383
109	0x3d500b46	0.050792
110	0x3d744173	0.05963273
111	0x3dfae262	0.1225021
112	0x3d61579d	0.055015195
113	0x3e038cf9	0.12846746
114	0x8008b000	-7.97821e-40
115	0x3df6bb9d	0.12047503
116	0x3da19910	0.078905225
117	0x3e3c1f47	0.18371306
118	0x3db1ff80	0.08691311
119	0x3db8f76a	0.090315655
120	0x800026de	-1.3943e-41
121	0x1b1e975e	1.3118363e-22
122	0x01a7cd26	6.1640485e-38
123	0xb2551d6c	-1.24049215e-08
124	0x0000044a	1.539e-42
125	0x80b9278a	-1.7003751e-38
126	0x019768b8	5.5618904e-38
127	0x8000c815	-7.1776e-41
128	0x82036c38	-9.655417e-38
129	0x80b2db51	-1.6425394e-38
130	0x01915710	5.3389516e-38
131	0x910a0031	-1.088634e-28
132	0x818e1fd6	-5.2208244e-38
133	0x00cfe81c	1.9093213e-38
134	0x80003f2e	-2.2665e-41
135	0x8309fa5a	-4.054807e-37
136	0x812b7f63	-3.1499135e-38
137	0x00ee660a	2.1893453e-38
138	0x801a0a80	-2.39149e-39
139	0x81e00fa2	-8.2307037e-38

gc1.bias f4 [20]
0	0x3e97272c	0.29522073
1	0x3e06e6cf	0.13173984
2	0xbe784699	-0.24245681
3	0xbb41604e	-0.0029506865
4	0x3bc9e4c3	0.0061613037
5	0xbe6fcf91	-0.23419024
6	0x3ebc3a3f	0.36763188
7	0xbe24e1f6	-0.16101822
8	0x3eaea122	0.3410731
9	0xbd8b0642	-0.06788303
10	0xbe484728	-0.19558394
11	0x3eb66697	0.35625145
12	0x3e926476	0.2859227
13	0xbda9368d	-0.08262358
14	0xb6e69747	-6.872145e-06
15	0x3e741e49	0.23839678
16	0x3c2448ec	0.010027152
17	0xbcd265a2	-0.025683228
18	0x3e6eb3fe	0.23310849
19	0x3e643a16	0.22287783

gc2.weight f4 [20, 20]
0	0xbd72fa14	-0.059320524
1	0x3de07031	0.10958899
2	0x800120d7	-1.03616e-40
3	0x3d67272f	0.056433853
4	0xbd6ea4a7	-0.058262493
5	0x3bab9898	0.0052366965
6	0x3db8812c	0.090090126
7	0x3c3865f4	0.011254776
8	0xbdcde7b8	-0.100539625
9	0x3d005ff0	0.031341493
10	0x1e226c98	8.598665e-21
11	0x3d8428ae	0.064530715
12	0x80004fd1	-2.8633e-41
13	0xbe35d3f8	-0.17756641
14	0xbd97a8a5	-0.07405213
15	0xbbc9c83e	-0.006157904
16	0xbdfc833c	-0.123297185
17	0x3e1418e9	0.14462627
18	0xbc7c27c4	-0.01539034
19	0x3aaa43ea	0.0012990211
20	0x3d563b97	0.052302923
21	0x3e4df301	0.2011223
22	0x80017264	-1.32871e-40
23	0xbda090de	-0.07840131
24	0x3e1baa6b	0.15201728
25	0x3a5fefc6	0.0008542504
26	0xbdc72eee	-0.09725748
27	0x3de9fc41	0.11425067
28	0x3d3d1dfa	0.046171166
29	0x3e74c3b1	0.23902775
30	0xa82267eb	-9.01534e-15
31	0x3e5c8a02	0.21537021
32	0x8000079c	-2.73e-42
33	0xbe54133e	-0.20710465
34	0x3de291c0	0.11062956
35	0x3cda9d95	0.02668647
36	0xbe934beb	-0.28768858
37	0x3e4c181b	0.1993107
38	0x3d7b0733	0.061286163
39	0xbcc97eb9	-0.024596559
40	0x3e31ae9d	0.17351766
41	0x3e50f7f9	0.20407094
42	0x000150a5	1.20765e-40
43	0xbe1f2d12	-0.15544537
44	0x3d304e3c	0.04304336
45	0xb933dcac	-0.00017152977
46	0xbe88e6ca	-0.26738578
47	0x3debdec0	0.115170956
48	0x3e6ffa1d	0.23435254
49	0x3e322b45	0.17399319
50	0xab589b23	-7.695391e-13
51	0x3e489521	0.19588138
52	0x00006124	3.4847e-41
53	0x3e760180	0.2402401
54	0xbb7ca3f2	-0.0038549867
55	0x3e19bf4b	0.15014379
56	0x3e6fde25	0.23424585
57	0x3e08b69a	0.13350907
58	0x3d976f2a	0.0739425
59	0xbd263191	-0.040574614
60	0x3ca0406c	0.019561969
61	0x3d8bf6ad	0.06834159
62	0x9e9551e2	-1.5809855e-20
63	0x3d51e026	0.051239155
64	0x3e9455be	0.28971666
65	0xbb422e1d	-0.0029629536
66	0x3d6946a7	0.056952145
67	0x3dee4f68	0.11636239
68	0x3e13b9f9	0.14426412
69	0x3d7ba664	0.06143798
70	0xb7972f7f	-1.802272e-05
71	0x3d993ddb	0.07482501
72	0x80003611	-1.9395e-41
73	0x3e410cde	0.18852565
74	0x3e39daee	0.18149921
75	0x3d16d2e7	0.036822226
76	0xbc0a01bf	-0.008423268
77	0xbd561a80	-0.052271366
78	0x3e279e05	0.16368873
79	0x3dd9212c	0.1060203
80	0x3d8f6270	0.07001197
81	0x3e605f21	0.21911289
82	0x000126d4	1.05764e-40
83	0xbe0fc253	-0.14038973
84	0x3e32caaa	0.17460123
85	0xbb561337	-0.0032665262
86	0xbe569a5c	-0.20957321
87	0x3df80077	0.12109464
88	0x3dc1aa6a	0.09456332
89	0x3e8f8c5c	0.28036773
90	0xaa9f8e0a	-2.8342633e-13
91	0x3e7af949	0.24509157
92	0x8000c74a	-7.1491e-41
93	0xbd44c9ce	-0.04804402
94	0x3e08b902	0.13351825
95	0xbc013332	-0.007885741
96	0xbeafd3c7	-0.3434126
97	0x3e5ac56a	0.2136437
98	0x3d48e3ec	0.04904549
99	0xba9fe3fd	-0.0012198683
100	0x3df1a920	0.11799836
101	0x3c01faa4	0.007933293
102	0x8000be03	-6.8163e-41
103	0xbdba6c03	-0.09102633
104	0x3e39a3ac	0.18128842
105	0xbc2f371f	-0.010694294
106	0xbd0d0f27	-0.03443828
107	0x3d92ade7	0.071620755
108	0x3e466e65	0.1937805
109	0xbc70f454	-0.01470669
110	0xad52b49e	-1.1977223e-11
111	0x3d03b49c	0.032154664
112	0x8000d522	-7.6458e-41
113	0x3e900388	0.28127694
114	0x3e0470ba	0.12933627
115	0x3dee699c	0.11641237
116	0x3d54cb0c	0.051951453
117	0xbd50ffe7	-0.051025297
118	0x3d9b1254	0.07571855
119	0x3e412a5c	0.18863815
120	0xbe0d180b	-0.13778703
121	0x3d43799e	0.047723405
122	0x80001a0f	-9.348e-42
123	0x3e2458e0	0.16049528
124	0x3d51da91	0.05123383
125	0xbb2b00e9	-0.0026093072
126	0x3ed29609	0.41130093
127	0xbd1d3cc6	-0.038388036
128	0xbe4e1cd6	-0.20128188
129	0x3e072c8e	0.1320059
130	0x1fc2f431	8.2566177e-20
131	0x3d377f33	0.04479904
132	0x00008043	4.6012e-41
133	0xbec2ca9a	-0.38045198
134	0x3d9157c8	0.07096821
135	0xbde0b192	-0.10971369
136	0xbd89f0c7	-0.06735378
137	0xbcaaa8e5	-0.020832488
138	0xbc8a452f	-0.016878692
139	0xbe427666	-0.18990478
140	0xbb647745	-0.003486113
141	0xbd884030	-0.06652868
142	0x800111fd	-9.8288e-41
143	0x3c5ebaeb	0.013594369
144	0xbcc58f18	-0.024116084
145	0xbb354036	-0.002765668
146	0x3e5b6e1b	0.2142872
147	0xbccfb01e	-0.025352534
148	0xbd58919a	-0.05287323
149	0xbc1ff421	-0.009762795
150	0x9d7b1aee	-3.3233496e-21
151	0xbd6f26e2	-0.05838669
152	0x0000968d	5.4007e-41
153	0xbda33c70	-0.07970512
154	0x3a02fd11	0.0004996816
155	0xbdd73c69	-0.10509569
156	0x30c89e16	1.4596846e-09
157	0xbdc52960	-0.09627032
158	0xbd4175ee	-0.047231607
159	0xbd885765	-0.06657294
160	0xbe0b0506	-0.13576135
161	0xbdaf1649	-0.085491724
162	0x000023de	1.2867e-41
163	0x3e5fa8a9	0.21841682
164	0xbd841231	-0.06448782
165	0x3a708ae0	0.00091759674
166	0x3eb9efdd	0.36315814
167	0xbe15914b	-0.14606206
168	0xbe6a03bf	-0.22852992
169	0xbd8a6e20	-0.06759286
170	0xaa90e9b6	-2.5741708e-13
171	0xbde20d3b	-0.1103768
172	0x80010ef4	-9.72e-41
173	0xbe78b513	-0.24287824
174	0xbc8022cb	-0.01564159
175	0xbe1da2a0	-0.15394068
176	0x3e7d3afd	0.24729533
177	0xbe15b617	-0.14620243
178	0xbd22d4e6	-0.039753817
179	0xbe4fc412	-0.20289639
180	0x3d2e4675	0.04254766
181	0x3e1de22f	0.15418313
182	0x0000fdc2	9.1031e-41
183	0xbdba2673	-0.09089365
184	0x3ca86225	0.020554611
185	0x3946540a	0.00018914058
186	0xbe07b685	-0.1325322
187	0x3d67b705	0.056571025
188	0x3daa05ba	0.083018735
189	0x3e303e36	0.17211232
190	0x1f073f20	2.8639578e-20
191	0x3e1e82ee	0.15479633
192	0x80006ae9	-3.8352e-41
193	0xbd82a50c	-0.063791364
194	0x3c242a3d	0.010019836
195	0x3ac9153b	0.001534141
196	0xbd1970a3	-0.037460934
197	0x3e06cd84	0.13164335
198	0x3c068d83	0.00821245
199	0xbd9f0712	-0.077650204
200	0x3cf025fb	0.029314985
201	0x3e76601f	0.24060105
202	0x80002885	-1.4536e-41
203	0xbe184503	-0.14870076
204	0x3d39ff48	0.04540947
205	0xb9d7a2d5	-0.00041129315
206	0xbe357865	-0.17721708
207	0x3d62b940	0.05535245
208	0x3e3f3e1e	0.1867604
209	0x3e81daa9	0.25362137
210	0xa8eaab64	-2.6053548e-14
211	0x3e78b0b4	0.24286157
212	0x00003ef3	2.2582e-41
213	0x3d6ae4c6	0.05734708
214	0x3b7e2d11	0.0038784186
215	0x3dde8e25	0.10866956
216	0x3df6d186	0.12051682
217	0x3e26e533	0.1629837
218	0x3c929970	0.01789543
219	0xbdba316f	-0.0909146
220	0xbe1f3468	-0.15547335
221	0x3c8cbbd3	0.017179405
222	0x0001602c	1.26335e-40
223	0x3e255233	0.16144638
224	0x3d9bead0	0.07613146
225	0x3c0dc98f	0.008654012
226	0x3e9c87df	0.3057241
227	0x3c53166e	0.012883766
228	0xbe70e8e5	-0.23526342
229	0x3be68b6c	0.0070356634
230	0x9f1ebd4d	-3.3614387e-20
231	0x3be465f6	0.0069701625
232	0x80007dad	-4.5084e-41
233	0xbe91bf8a	-0.28466445
234	0x3d5eac04	0.054363266
235	0x3a4173c4	0.0007379616
236	0xbe6effcd	-0.23339768
237	0x3d80c760	0.06288028
238	0x3cf9799a	0.030453492
239	0xbc9d04e6	-0.019167375
240	0xbdca66ae	-0.09882866
241	0xbd3bb7fb	-0.045829754
242	0x000128bc	1.06448e-40
243	0x3e25cb5f	0.16190861
244	0xbca6aed2	-0.020347033
245	0xbb0cb524	-0.0021470273
246	0x3ea1e745	0.31621757
247	0xbdaffc05	-0.08592991
248	0xbe1be25c	-0.15223068
249	0xbcbab3ab	-0.02279075
250	0x1d50b796	2.7623482e-21
251	0xbd74854c	-0.059697434
252	0x80005638	-3.093e-41
253	0xbe2e7c50	-0.17039609
254	0x3bb2f130	0.0054608807
255	0xbdb0e375	-0.08637134

gc2.bias f4 [20]
0	0x3d2cf6f8	0.042227715
1	0x3bdcdb4a	0.0067400085
2	0x82e21504	-3.3219778e-37
3	0xbdc1ede8	-0.09469205
4	0xbd967b18	-0.07347697
5	0x3d49d786	0.049277805
6	0x3e181a1d	0.14853711
7	0xbca8086a	-0.020511825
8	0xbd6dff37	-0.05810472
9	0xbcbb5094	-0.022865571
10	0xb28576f3	-1.553733e-08
11	0xbd34c31b	-0.04413138
12	0x8000cbd1	-7.3116e-41
13	0xbe430887	-0.19046222
14	0xbdc73cb2	-0.097283736
15	0xbd5532cb	-0.052050393
16	0xbee83b23	-0.45357618
17	0x3e26d669	0.16292728
18	0xbd545c92	-0.051846094
19	0x3ca07c39	0.019590484

gc3.weight f4 [20, 20]
0	0xbe2df94d	-0.16989632
1	0x3d5bb870	0.05364269
2	0xb85c557e	-5.253171e-05
3	0x28ced5ad	2.2963261e-14
4	0x3dbc13bd	0.09183452
5	0x3dad9ce6	0.084771916
6	0xa53c75fb	-1.6346374e-16
7	0x19afe67e	1.8187671e-23
8	0x3d212893	0.039345335
9	0x80786bdd	-1.1058954e-38
10	0x3d0d4032	0.03448505
11	0x3d9869fb	0.07442089
12	0xb7c8ad66	-2.3922603e-05
13	0x3e2dd6da	0.1697649
14	0x3cfd767b	0.030940285
15	0xbe4df9dc	-0.20114845
16	0xb4ff99ab	-4.760926e-07
17	0x3d05de9f	0.03268301
18	0x3b9bab75	0.004750664
19	0x3dc52dd5	0.096278824
20	0xbc5bab68	-0.013407566
21	0x3e1dfd7c	0.15428728
22	0xb98f2f15	-0.00027310164
23	0xb3160610	-3.493011e-08
24	0x3e6259b9	0.22104539
25	0x3dbf624d	0.09344921
26	0xa53a64c8	-1.6167074e-16
27	0x9aeba126	-9.745407e-23
28	0x3d452287	0.04812863
29	0xb09670eb	-1.094603e-09
30	0x3dc23ad1	0.094838746
31	0xbe0b67e2	-0.13613847
32	0xbb84577f	-0.0040387507
33	0x3e854817	0.26031563
34	0x3ded68c0	0.11592245
35	0xbc668a1a	-0.014071012
36	0xb419354f	-1.4268629e-07
37	0xbdf7aebc	-0.12093875
38	0x3d52ed5e	0.051495902
39	0x3d4a9018	0.049453825
40	0x03230384	4.790543e-37
41	0x80000d80	-4.843e-42
42	0x0002a514	2.4289e-40
43	0x801a5b68	-2.420513e-39
44	0x12052b60	4.2020864e-28
45	0x02e8f068	3.4227323e-37
46	0x00025546	2.14261e-40
47	0x00090f37	8.31978e-40
48	0x000fda3c	1.45582e-39
49	0x80017f44	-1.3749e-40
50	0x80007d5f	-4.4975e-41
51	0x890a7930	-1.6668128e-33
52	0x000019ce	9.257e-42
53	0x99b1255e	-1.8316464e-23
54	0x000059c5	3.2203e-41
55	0x0c064aab	1.0345454e-31
56	0x8000f11d	-8.6495e-41
57	0xa17e472c	-8.6152743e-19
58	0x00015fef	1.2625e-40
59	0x9439c5a5	-9.379092e-27
60	0x3e32cb39	0.17460336
61	0xbd0a30a1	-0.033737782
62	0xb672dd16	-3.61895e-06
63	0xac409d54	-2.7372176e-12
64	0xbe00f789	-0.12594427
65	0xbe02e7bb	-0.1278371
66	0x23c7cd6c	2.1662623e-17
67	0x1a0daf00	2.929948e-23
68	0x3d6e463f	0.05817246
69	0xaa147f0f	-1.3189123e-13
70	0xbd0a5a6f	-0.03377765
71	0x3ba87e39	0.005142
72	0xb78a225a	-1.6466878e-05
73	0xbe1a206d	-0.15051432
74	0xbd4bdb5f	-0.049769755
75	0x3e61691b	0.22012751
76	0x2e3114a7	4.0263484e-11
77	0x3c6b631d	0.014366892
78	0x3d2ffbcb	0.042964738
79	0x3d8bbb49	0.06822831
80	0x3e4382ad	0.19092818
81	0x3cbba7a2	0.022907082
82	0xb9a2b526	-0.00031034014
83	0xb49fe040	-2.977922e-07
84	0x3db924c6	0.09040217
85	0x3e3d546a	0.18489233
86	0xa61d46dc	-5.456635e-16
87	0x9b781d5a	-2.0523563e-22
88	0x3da2920d	0.07938013
89	0xb1dab5de	-6.365311e-09
90	0x3d7e1517	0.06203183
91	0x3d1d3ec3	0.038389932
92	0xbc58a4f2	-0.01322292
93	0x3d99323c	0.074802846
94	0x3d8094ea	0.06278403
95	0x3e746c6c	0.23869485
96	0xb6bb265d	-5.5775004e-06
97	0x3d11582a	0.03548447
98	0x3d543107	0.05180457
99	0x3dff601a	0.12469502
100	0xbc592eac	-0.013255756
101	0xbb1f83cb	-0.002434003
102	0xb5ba29fd	-1.38703e-06
103	0xb05fc8f9	-8.1412527e-10
104	0xb941b550	-0.00018473458
105	0x3aa998ff	0.0012939273
106	0x236e13c6	1.2906193e-17
107	0x18a383c9	4.226758e-24
108	0x39cd5029	0.0003916037
109	0x2e921820	6.643597e-11
110	0xbb084e85	-0.0020798754
111	0xba4a82e2	-0.00077251915
112	0xb5ca785a	-1.50852e-06
113	0xba708cfb	-0.0009176281
114	0x3bcc04ce	0.0062261587
115	0xbc406928	-0.011743821
116	0xb3944038	-6.9034684e-08
117	0x398fc833	0.00027424245
118	0x3b534a67	0.0032240392
119	0xb9b18853	-0.0003386164
120	0x3e925c49	0.28586033
121	0xbd344626	-0.04401221
122	0xb763a1a2	-1.3567887e-05
123	0xb111e910	-2.1232758e-09
124	0xbe9de570	-0.3083911
125	0xbe7ec42f	-0.24879526
126	0x2486d650	5.8476296e-17
127	0x1af3ac3c	1.00780704e-22
128	0xbc3e4f22	-0.011615546
129	0xaf8a5a3d	-2.5166172e-10
130	0xbd1df5a5	-0.038564343
131	0xbdeb05c9	-0.11475713
132	0xb7b8b85e	-2.2020362e-05
133	0xbebdc001	-0.3706055
134	0xbdd90e92	-0.10598482
135	0x3ec087de	0.37603658
136	0x309feb78	1.1635697e-09
137	0xbe2563cf	-0.16151355
138	0x3c525aae	0.012839003
139	0xbdaf8112	-0.0856954
140	0x3d1d41ee	0.038392954
141	0x3d27429a	0.040835
142	0xb8cdc71b	-9.812248e-05
143	0xb30a1ced	-3.2156937e-08
144	0x3dbdb7c6	0.092635676
145	0x3dde3cc4	0.10851434
146	0xa65121fa	-7.255749e-16
147	0x9ae90d40	-9.638795e-23
148	0x3dbbda0e	0.0917245
149	0xb0532e97	-7.682756e-10
150	0x3d014caf	0.03156727
151	0x3d06d08b	0.032913726
152	0xbb5968a8	-0.0033173952
153	0x3d9940a0	0.07483029
154	0x3cfccf38	0.030860528
155	0x3cbf562d	0.023356522
156	0x35a968de	1.2622002e-06
157	0x3d898a1a	0.06715794
158	0x3cc7165a	0.02430265
159	0x3d72fd53	0.05932362
160	0xbe791054	-0.24322635
161	0x3d902bc6	0.07039599
162	0xb80b399d	-3.319384e-05
163	0x294acaf3	4.502904e-14
164	0x3e559c25	0.20860346
165	0x3e0cb985	0.13742645
166	0x231ab344	8.386318e-18
167	0x1a18b75c	3.158098e-23
168	0x3c4803fd	0.012207982
169	0x0029da9d	3.843679e-39
170	0x3d6ad67f	0.057333466
171	0x3de2a6ac	0.110669464
172	0x377f2e50	1.5209967e-05
173	0x3e7ab8ff	0.24484633
174	0x3d85d02f	0.065338485
175	0xbe9d8530	-0.30765676
176	0xb45cd916	-2.0568072e-07
177	0x3df156e1	0.11784149
178	0xbc7cdc99	-0.015433454
179	0x3bc1dd1a	0.00591625
180	0xbbc3f085	-0.0059796
181	0x3e0fb8d7	0.14035355
182	0x3ad5990b	0.0016296221
183	0xb2b0a5f7	-2.0564569e-08
184	0x3de1e6cb	0.110303484
185	0x3e421acd	0.18955536
186	0xa4f9dd55	-1.0836149e-16
187	0x9a950f2e	-6.164948e-23
188	0x3e1c250e	0.1524851
189	0xb0159505	-5.4417654e-10
190	0x3e26f188	0.16303074
191	0xbe18d61e	-0.14925429
192	0xbb12391e	-0.0022311877
193	0x3af3f8a3	0.0018613528
194	0x3da1177b	0.07865807
195	0xbd4dd360	-0.05025041
196	0x33d26360	9.796963e-08
197	0xbe25d6ba	-0.16195193
198	0x3de9c8a6	0.11415224
199	0x3e90cd01	0.28281406
200	0xb4c3b057	-3.6449885e-07
201	0xa986a94a	-5.9801624e-14
202	0x1a2b3086	3.5401168e-23
203	0x180ea051	1.8434009e-24
204	0x3630d5a4	2.63504e-06
205	0x336571e2	5.3421793e-08
206	0x918107b8	-2.0357368e-28
207	0x06b49ed0	6.794183e-35
208	0x318e0c26	4.134125e-09
209	0x96f2651b	-3.9161015e-25
210	0x220e73ec	1.9305957e-18
211	0x3509f309	5.139014e-07
212	0x8ddd874f	-1.3652751e-30
213	0x371dfc15	9.416622e-06
214	0x290dd489	3.1492634e-14
215	0xb5fb73d5	-1.8734669e-06
216	0x1d7fe006	3.3864786e-21
217	0x37e229e0	2.6960799e-05
218	0x2a8be93f	2.4853207e-13
219	0x3608a3b5	2.036087e-06
220	0xbc63d7b0	-0.013906404
221	0x3dd1c684	0.10242942
222	0xba236461	-0.0006232914
223	0xb3026713	-3.036173e-08
224	0x3e27ff1c	0.1640591
225	0x3deafdf6	0.114742205
226	0xa5361a8a	-1.5794975e-16
227	0x9ad6f151	-8.8898193e-23
228	0x3dfd72c4	0.123754054
229	0xb07eaa10	-9.2646335e-10
230	0x3dc80487	0.097664885
231	0xbdcbcf79	-0.09951682
232	0xbb6c9fc1	-0.0036105963
233	0x3e556f80	0.20843315
234	0x3dc124cc	0.094308466
235	0x3a11cbb6	0.00055616663
236	0xb28c29ec	-1.6317209e-08
237	0xbdd84d8e	-0.105616674
238	0x3d77bad1	0.060480896
239	0x3e390701	0.18069078
240	0x000137fe	1.11922e-40
241	0x00008268	4.6781e-41
242	0x800127d9	-1.0613e-40
243	0x00015675	1.2285e-40
244	0x00005498	3.0347e-41
245	0x0000cdf0	7.3876e-41
246	0x80012a72	-1.07062e-40
247	0x8000b05f	-6.327e-41
248	0x80016a2e	-1.29926e-40
249	0x800014ad	-7.417e-42
250	0x00013948	1.12384e-40
251	0x0000119b	6.316e-42
252	0x8000f291	-8.7016e-41
253	0x80007587	-4.2161e-41
254	0x8000a54c	-5.9297e-41
255	0x00008554	4.7829e-41

gc3.bias f4 [20]
0	0xbd74b34d	-0.059741307
1	0xbd0356a6	-0.032065056
2	0xb80e935b	-3.3992674e-05
3	0xb5734c54	-9.0635626e-07
4	0x3d377c02	0.044795997
5	0x3d4de70d	0.050269175
6	0xa4a91b5f	-7.3338435e-17
7	0x9a69800f	-4.8286716e-23
8	0x3d14519c	0.03621064
9	0xb318fe74	-3.562168e-08
10	0xbcf48f7f	-0.02985358
11	0x3d6c9460	0.05775869
12	0xb98047e6	-0.0002446763
13	0x3d0fdd3e	0.035123102
14	0x3cd13637	0.025538547
15	0xbd81424a	-0.06311472
16	0x3744b134	1.1723769e-05
17	0x3d485b77	0.048915353
18	0x3ce16747	0.027515067
19	0x3cee473d	0.029086703

lin.weight f4 [2, 60]
0	0xbb303e15	-0.0026892473
1	0xbdaf561e	-0.085613474
2	0xbd390d40	-0.04517865
3	0x3e8d1ca1	0.27560905
4	0xbd47efec	-0.04881279
5	0x3cfbf264	0.03075523
6	0xbd2d5aa6	-0.042322777
7	0x3e02491f	0.12723206
8	0x3d9f3a80	0.0777483
9	0xbd36cd95	-0.044629652
10	0xbd891895	-0.06694142
11	0xbcd39e0a	-0.025832195
12	0x3b929974	0.0044738594
13	0x3e71f1e1	0.23627426
14	0x0012abb5	1.714636e-39
15	0x3e750f13	0.23931532
16	0x3e609814	0.21933013
17	0x3e8475ef	0.25871226
18	0x3dc1afc8	0.09457356
19	0x3dfb2e51	0.122646935
20	0xbc9355ba	-0.017985214
21	0x3e65e34e	0.22449991
22	0x82a6013d	-2.4392219e-37
23	0x3e0eefc7	0.13958655
24	0x3eb6f8de	0.35736746
25	0xbbe2401d	-0.0069046156
26	0x3ec3b7d5	0.3822619
27	0x3e436567	0.1908165
28	0x3e35b3e4	0.17744404
29	0x3e8a4757	0.27007553
30	0xb08a261f	-1.0051656e-09
31	0x3e6412f4	0.22272855
32	0x00002db9	1.6402e-41
33	0x3e42f087	0.19037066
34	0x3e85ddbe	0.26145738
35	0x3e2f7a4c	0.17136496
36	0xbe115a4f	-0.14194606
37	0xbb65abf0	-0.003504511
38	0x3e498bd8	0.19682252
39	0x3e3e5252	0.1858609
40	0x3eac9170	0.3370471
41	0x3e4de66f	0.20107435
42	0x377f1f75	1.5206509e-05
43	0x363215b8	2.653671e-06
44	0xbed281bf	-0.41114613
45	0xbea02d33	-0.31284484
46	0xa541b9ab	-1.6802988e-16
47	0x9b98c5c9	-2.5274106e-22
48	0xbe8246ee	-0.2544474
49	0x33ff9722	1.1901854e-07
50	0x3e1408f9	0.14456548
51	0xbeab5d61	-0.3346968
52	0x3a923e3e	0.0011157466
53	0xbee1f1d9	-0.44129828
54	0xbe36b374	-0.17841893
55	0x3ed03eeb	0.40673003
56	0xb81893d4	-3.63773e-05
57	0xbf0cc8fb	-0.5499417
58	0xbdecfbc2	-0.115714565
59	0xbec1ed89	-0.37876537
60	0x3a8239a4	0.0009935391
61	0x3d47a070	0.04873699
62	0x3d5b4484	0.05353214
63	0xbe8a5b04	-0.27022564
64	0x3db790f0	0.089631915
65	0xbd4b1aea	-0.049586214
66	0x3d413070	0.047165334
67	0xbe0262bb	-0.12732975
68	0xbdaa3ac2	-0.083119884
69	0x3d311469	0.043232355
70	0x3d21a5d9	0.039464805
71	0x3cdb940c	0.026803993
72	0xbaea8fd4	-0.0017895647
73	0xbe45cf18	-0.19317281
74	0x80135da3	-1.778465e-39
75	0xbe7317a5	-0.23739488
76	0xbe67e2dc	-0.22645134
77	0xbe49c827	-0.19705258
78	0xbdcb3ea8	-0.0992406
79	0xbdf55089	-0.119782515
80	0x3cedaf53	0.029014265
81	0xbe0caf1c	-0.13738674
82	0x02a60844	2.4396252e-37
83	0xbe0d7dc3	-0.13817506
84	0xbea96dc2	-0.3309155
85	0x3be79049	0.0070667607
86	0xbec06a2e	-0.3758101
87	0xbe6707dc	-0.22561592
88	0xbe2ced68	-0.16887438
89	0xbe886a49	-0.2664359
90	0x308a25fe	1.005162e-09
91	0xbe789a01	-0.24277498
92	0x80000ddc	-4.972e-42
93	0xbe41621d	-0.18885083
94	0xbe6580f4	-0.22412473
95	0xbe1e370d	-0.15450688
96	0x3e0e9e5a	0.13927594
97	0x37ccc5aa	2.441074e-05
98	0xbe3db37d	-0.185255
99	0xbe293ce8	-0.1652714
100	0xbebf7ad2	-0.37398392
101	0xbe4f9174	-0.2027033
102	0xb77f0f64	-1.5202768e-05
103	0xb63210c9	-2.6533837e-06
104	0x3eb890d5	0.36047998
105	0x3e8425d7	0.2581012
106	0x2541c002	1.6805136e-16
107	0x1b48a7fc	1.6597891e-22
108	0x3e5f132e	0.2178466
109	0xb3fb70d3	-1.1708621e-07
110	0xbe3cbec2	-0.18432143
111	0x3ea18af4	0.31551325
112	0xba926b86	-0.001117096
113	0x3ee3b97f	0.4447746
114	0x3e244260	0.16040945
115	0xbed2c378	-0.41164756
116	0x38181fc9	3.6269226e-05
117	0x3efb51b0	0.4908576
118	0x3e6af845	0.2294627
119	0x3eb31a1c	0.34980857

lin.bias f4 [2]
0	0xbd3645d8	-0.044500202
1	0x3d36f730	0.04466933
